mnist_digit_classifier.pth (torch, 440350 bytes, 6 tensors)

fc1.weight f4 [128, 784]
00000000: 1dfb 03bc 50cd ee3c 2ee6 cc3c fdaf 1e3d
00000010: 6b00 57bb 7c38 97bc 4ffe 183d fc12 d23c
00000020: fdf9 6a3c 79a2 813c 9ff9 403c 33ea 273d
00000030: 4123 65bc 89bc f73c b6c3 69bc b713 a6bb
00000040: c765 223d 2af7 17bb e151 4a3c 477e 343d
00000050: cfe1 183c 47fb 1c3d 1f5a 233d 98c0 f13a
00000060: 85c8 d9bb 88a7 ecba 451b 1b3d fb07 1d3c
00000070: 85de 573c 7f93 6dbc ba57 2f3b 37dd 343d
00000080: b217 153d d286 09bc c6b3 1c3d ae4f 91bb
00000090: a32d 98bc 3d0e 8abc a4a1 b7bc 41af 003b
000000a0: fb52 f4bb 2bee b5bc e66b 453b a2ec cd3c
000000b0: dee6 79bc 43dc d0bb d5be 99bc a27d 8f3c
000000c0: de0a 73bb d0ba 2f3d 1078 03bc 99eb ff39
000000d0: fb17 51bc 276f 5c3c 9951 adbb c79c 8cbc
000000e0: 68b0 cc3c f49c 993c b506 333d cfbd f5bb
000000f0: bc99 273d 7a43 1cbc 3686 b6bb 548d dc3c
00000100: d7fc 033d 8f46 a2bc fe31 073d 601a ed3c
00000110: 9860 723d 5d89 8c3d 1b91 753d 45ef 703d
00000120: de59 a93c f286 c7ba ad88 753d f7cb 6e3b
00000130: 3da1 803c 181f 493c d917 f43c 84bb db3c
00000140: aa98 a63c fe02 a7bc a20a b03c 6b21 57bc
00000150: 1c13 bebc 341c ac3c e294 c3bc fbca a3bb
00000160: 5cb5 703c d7ad 053d fcde b0bc 7655 c2bb
00000170: 2665 8ebc bfac f33b 3c27 2e3a 0f4d 35bb
00000180: 7250 153d 3686 a1bc a871 e7bc 477c b8bc
00000190: 72b1 083d 3f42 66bc 8ccc 81bc 04ad 4fb8
000001a0: 2404 a4bb e89c c53b d2b4 2c3b 808a 8c39
000001b0: e3ff f83c 9802 cabc 33ed 233b e763 35bc
000001c0: e37b 623b 0a4a ac3c 90dd dd3b 5c7a ce3c
000001d0: ab1e e53c 323f 203c b5af 4c3c f853 a8bc
000001e0: bb37 febc 6738 a5bb af54 f9bb f7e3 a0bc
000001f0: 55c7 89bd c9a2 7ebd eb7b 683c a54a 1fbd
00000200: eccd 14bd 9c43 d4bb 1fe1 913c 6b72 0e3d
00000210: 4d17 9a3d 9005 603d eb66 873d f85b be3c
00000220: a432 be3c 5e80 323c 1457 6f3b 98b3 0e3c
00000230: 203c 373b 513c 2bbb 6e75 bebc 7900 2f3c
00000240: 276a eb3c 2aa7 1ebd 1723 3a3c 0f36 87bd
00000250: f06e 97bd 4f80 84bd b0e2 13bd 1cb9 ccbc
00000260: 61ce 24bd db80 fe3c 9f74 f73c 7b85 c23d
00000270: bc4c 8f3d 4655 64bc 3dfe 893d dd60 4f3d
00000280: 1865 6e3d ca5d c43d 5234 b93d a6c2 c43c
00000290: 6c94 073c 9568 0a3c c5e1 093d 70a4 f93c
000002a0: 55fd f03c 8706 0a3d bf44 a9bb 5440 1fbc
000002b0: 60f6 fbbc 9bf1 0d3c 0bc0 90bd 6f89 98bd
000002c0: adef 90bd 02a1 b3bd 323a 62bd 8a42 b0bd
000002d0: e2bb f23a 509b 3639 5953 3abd 6108 c0bc
000002e0: 286c 78bd 0210 99bd e526 15bc 8909 b33c
000002f0: 52e4 4a3d f9d0 763c 0a1d 103d 4370 423d
00000300: 4bd0 6a3c 3cba 8e3b 331c 173d 989c 1c3d
00000310: b827 aa3c 975d 333d 0217 203c 100f 22bc
00000320: 8143 c5bc ed81 b6bc eb69 9cbd 979e 33bd
00000330: 6031 edbd 972d 9dbd 405a 62bd e3fa e9bc
00000340: a51a 2dbd 6e9c f0bc 5cf7 a9bd 2b3f ffbd
00000350: b306 b6bd 3bfe c1bd a23f 77bd 81cf d8bc
00000360: ad5a 27bc 149b e3bc 0138 ed3c adbd 883d
00000370: b565 3a3d 3b54 713d cc02 3a3d 31d0 6b3b
00000380: 6efa 1dbc 52ec 093d 09ae ebba 373c 5fbc
00000390: 4fb1 43bd 74ee 94bd e3f7 86bd 2729 e1bd
000003a0: 3b58 88bd 4920 12bd 2d43 33bd fb7b 423d
000003b0: 78aa 5c3d 0c72 3e3d 12cb 91bc dfc1 83bd
000003c0: 0a36 94bd bbcd 83bd 9489 95bd 8061 34bd
000003d0: be40 4abd 5dda 15bc 0db0 b3bb 268c 2b3c
000003e0: 748f 8e3d 3bf6 a23d b90f ad3c ffd4 3abb
000003f0: 0224 a13c bf67 c1bc 11d0 d13c 8437 6cbc
-0.008055476 0.029150635 0.025012102 0.038742054 -0.0032806646 -0.018459551 0.037351903 0.025643818
0.014341828 0.015824543 0.011778264 0.040994834 -0.013985456 0.030241268 -0.0142678525 -0.005068268
0.039647844 -0.0023188093 0.012348623 0.04406574 0.009331181 0.038325574 0.039880868 0.0018444238
-0.0066462182 -0.0018055299 0.037867803 0.009584422 0.013175611 -0.014500498 0.002675517 0.04415628
0.03639955 -0.00839396 0.038257383 -0.0044345474 -0.018576449 -0.016852492 -0.022415943 0.001963571
-0.007456181 -0.022208294 0.0030124127 0.02513725 -0.015252797 -0.0063739135 -0.018767754 0.017515961
-0.0037085335 0.042902768 -0.008024231 0.00048812924 -0.012762065 0.013454235 -0.005289268 -0.017164601
0.02498646 0.018751599 0.04370757 -0.0074994336 0.040918097 -0.009537572 -0.0055701984 0.02692286
0.03222355 -0.019809036 0.03300666 0.02894324 0.05917415 0.068621375 0.059952836 0.058821935
0.020672735 -0.0015222712 0.059944797 0.003643749 0.015701884 0.01227548 0.029796528 0.026822813
0.020336468 -0.020387169 0.021489445 -0.013130526 -0.023202471 0.021009542 -0.023874704 -0.0049985624
0.014691677 0.03263649 -0.021590702 -0.005930598 -0.017382216 0.0074363644 0.00066434196 -0.0027664339
0.03645367 -0.019717317 -0.028252438 -0.022520198 0.03337235 -0.01405388 -0.015844606 -4.951378e-05
-0.0050053764 0.0060306676 0.0026352894 0.0002680607 0.030395454 -0.02465944 0.0025013208 -0.011071182
0.0034558706 0.021031398 0.006770797 0.02520483 0.027968725 0.009780692 0.012493064 -0.020547852
-0.031032434 -0.005042124 -0.007608972 -0.019639952 -0.06727473 -0.062166963 0.014189701 -0.038889546
-0.036329195 -0.006477786 0.017807541 0.034777086 0.075239755 0.054692805 0.06611427 0.023237213
0.023217507 0.010894863 0.0036520408 0.008709811 0.0027959421 -0.002612848 -0.023249354 0.010681265
0.02873714 -0.03873364 0.011360905 -0.06602108 -0.073942065 -0.064697854 -0.036104858 -0.02499061
-0.04023588 0.031067302 0.030206976 0.09498116 0.06997058 -0.013936346 0.06737945 0.050629485
0.05820188 0.09588201 0.090431824 0.024018597 0.008275133 0.008447786 0.033662576 0.030473918
0.029417673 0.03369763 -0.005165666 -0.009719927 -0.03075713 0.00866356 -0.07067879 -0.074480884
-0.070769645 -0.08770944 -0.05523128 -0.08606441 0.0018519128 0.00017414731 -0.045489643 -0.023441495
-0.06065002 -0.074737564 -0.009103511 0.021855133 0.04953415 0.015064471 0.035183944 0.047470342
0.0143318875 0.004355697 0.036892127 0.038235277 0.020770893 0.043790426 0.0097711105 -0.0098912865
-0.02408004 -0.02227875 -0.0763739 -0.043852415 -0.11581683 -0.07674711 -0.05526185 -0.028562015
-0.04226174 -0.029371466 -0.08299133 -0.1246322 -0.088879965 -0.09472319 -0.06036342 -0.026466133
-0.01021449 -0.027783908 0.028957369 0.06676803 0.04550715 0.05891822 0.045412824 0.0035982246
-0.009642227 0.03367264 -0.0017980944 -0.013625196 -0.047776517 -0.07272044 -0.065902494 -0.10994177
-0.066574536 -0.03567532 -0.043765236 0.04748152 0.05387351 0.046495482 -0.017797027 -0.06433462
-0.0723687 -0.06435724 -0.073016316 -0.044038296 -0.04937815 -0.0091463 -0.0054836334 0.010470426
0.06960955 0.07957121 0.021125661 -0.0028508303 0.01967049 -0.02360904 0.02561191 -0.014417533

fc1.bias f4 [128]
00000000: 9c9a e0bc bdc4 09bd 3065 533c f43b d53c
00000010: 5bff e1bc b179 e6bc 4cc7 ef3c 395d 7bbc
00000020: 671b 93bc bd59 f23c 16c5 d43c d92c 603b
00000030: fd77 f23c dfd9 cabc 760a c9bc b033 993c
00000040: fc75 133c cb46 f13a bc23 23bd d075 333b
00000050: 9c68 02bd 5b2d bdbc a64a 31bb b831 8f3c
00000060: a70f 8cbc dc64 50bc c1e2 a2bb 5c94 ba3c
00000070: 6487 88bb c0d9 4a3c 8f24 a83c 631f 153d
00000080: 5265 1bbc 4f3d 18bd c282 c63c dd19 983b
00000090: 22d8 1c3d 6fe2 f5bb f210 0ebd fc02 023c
000000a0: 8906 4abc 4989 17bc 093b 1fbd 95b0 30bc
000000b0: 6271 743c 79a2 09bc c0e4 c5bb f43f f439
000000c0: ac68 4ebb cdb7 e8bb 937a 1b3c 0a7a 883b
000000d0: da05 b1bb f286 9dbb 338f c9bc f7bf cabc
000000e0: b1b9 153c 8996 83bc 84db 83bb 52b6 e2bc
000000f0: 9d34 c03b 5187 be3c ae72 223d ddfc 92bc
00000100: 2b94 cebc 7395 3cbc cb92 083d 58c1 0b3b
00000110: 0624 f7bb eb79 8f3c c247 b4bb 3d1c 963c
00000120: 3459 533c 8601 173c 8bb9 dbbc dc7a 26bd
00000130: 9224 293d cbe9 c9bb 1001 a1bc a29a 953c
00000140: fa05 b4bc 541c eb3c 913f c0bc cac8 80bc
00000150: f441 e5bc 07f1 743b 975f 05bc a625 673c
00000160: 7b88 ae3a e350 553c a1bb 8bbc 3a9c cfbc
00000170: df93 8fbc 46a7 3b3c 672b 1fbb 091c acbc
00000180: 6262 983b 7c9e f4bc 4cfd 03bc e39b 42bc
00000190: 1b4a e7bc 04ea 84bc fe5e 94bc e82b 08bd
000001a0: f2af 9abc d2c9 3abb 339f 14bd 740e 093c
000001b0: 2adf fabc dd44 b5bb cc4f 933b d16c 12bc
000001c0: aaab 93bc 9d94 fa3c b999 203d fa86 36b8
000001d0: 1caa fe3c 769b a2ba 2a6a 04bd 82c3 c63b
000001e0: 71ba ef3c 3318 eb3a ede2 9d3c 281c 173d
000001f0: 460e 8e3c 661c a5b9 b538 e63c 0426 823c
-0.027417473 -0.03363489 0.012902543 0.026029564 -0.027587583 -0.028134199 0.029269837 -0.01534205
-0.017957402 0.029583806 0.025972884 0.0034206419 0.02959823 -0.024762092 -0.024541121 0.018701404
0.009000298 0.0018407939 -0.039829 0.0027383454 -0.031838045 -0.023092916 -0.002705255 0.017479762
-0.017097307 -0.012719359 -0.004970879 0.022775821 -0.0041665304 0.012381017 0.020525245 0.036406886
-0.009484606 -0.037167843 0.024232272 0.004641755 0.038292058 -0.0075037996 -0.03468413 0.007935282
-0.01233066 -0.00924904 -0.03887466 -0.010784288 0.014919611 -0.008400553 -0.006039232 0.00046586955
-0.0031495495 -0.007101989 0.009489673 0.004164939 -0.005402309 -0.0048073465 -0.024604416 -0.02474974
0.009138511 -0.016062992 -0.004023971 -0.027674828 0.005865647 0.023257883 0.03966015 -0.01794284
-0.025217136 -0.011510241 0.033343118 0.0021324959 -0.007542136 0.01751419 -0.0055017183 0.018324012
0.012899686 0.009216672 -0.026821872 -0.04064451 0.04129464 -0.0061619035 -0.019653827 0.018262211
-0.021975506 0.028700031 -0.02346781 -0.015720744 -0.02798555 0.0037375109 -0.008140466 0.014108097
0.0013315821 0.013019773 -0.017057242 -0.02534305 -0.017526565 0.011453455 -0.0024287344 -0.021009462
0.0046504 -0.029860727 -0.008055996 -0.011877987 -0.028233578 -0.016224869 -0.018111702 -0.033244997
-0.018882725 -0.0028501642 -0.036284637 0.008365262 -0.030623991 -0.005531891 0.0044955965 -0.008937077
-0.018026192 0.030588442 0.0392091 -4.3517888e-05 0.031086974 -0.001240595 -0.03232781 0.006065787
0.029263707 0.0017936289 0.019273246 0.036892086 0.01734079 -0.0003149241 0.028103212 0.015887268

fc2.weight f4 [64, 128]
00000000: 81cd de3c 1473 9a3d daea 90bd 11f4 42bd
00000010: 2bfa 443d fe8f a1bd a504 933d 56fb 5c3c
00000020: 1307 863d 2f5a 023c adcb 06bb c7ec c7bb
00000030: 8369 36bd 3026 f3bc d0a4 883d 6129 4ebd
00000040: e7fc 6b3d af96 583d 0f70 bd3b e460 a03d
00000050: e967 0ebe 785c d4bb de98 34bd c0e0 ca3c
00000060: 8efc 2c3c b10f e73d 2ac9 e0bc a075 6e3d
00000070: 9c34 ab3c 2380 9ebc 68cf 093c 367a 51bd
00000080: fa30 ca3b fb54 98bc e43a 653d 09f2 af3c
00000090: 0828 123e 34e7 143d 3fc3 b83d bc05 773c
000000a0: c855 adbc dd98 8b3d 6069 88bd 8c24 143d
000000b0: 20f8 47bd b07a d23d a85d 78bd f6a8 96bd
000000c0: 45ee f33d 070c 843b 7033 10bc d089 553d
000000d0: e889 16bc 66fa 893c c778 9abd 02e4 623c
000000e0: 97f4 0fbd 3383 263d a784 50bc a87a 4d3d
000000f0: 2285 3dbd f9cf 5a3d 097d 703d 18cc 473d
00000100: 105e 6cbd c91f bd3a f798 323d 12d3 fa3d
00000110: f84c 53bd 5f0c f23c 083c 333d defc be3c
00000120: 5370 9bbd 0d74 04bd 63cf 28bd 265f 80bd
00000130: 1bcf af3d f5fb e7bc e765 ad3d a724 42bd
00000140: 8932 30bd 45ce a8bc 54bf a3bc b202 36bd
00000150: 2b9b 823e cc61 4c3c cba8 423d b3a2 bcbc
00000160: 48fa 8f3d 26d3 d2bc 4fa9 a1bd fe86 aabc
00000170: bf8a 86bd 9b5d f0bc 5ef3 80bd 40ca 18be
00000180: f1c9 d2bc 85d1 86bd ffe7 a03d afac 1c3e
00000190: 1ac3 a03d 0585 11bd 00a5 4e3d ae58 6b3d
000001a0: 9889 9c3d 5e56 4abc 7d66 bf3b 24b4 a03d
000001b0: 46c5 babd 4514 8a3c d7af 0bbd e9be bf3d
000001c0: f4a2 fe39 9214 ba3c a494 4bbd 2c65 993c
000001d0: 7a06 683d 91d7 d8bd 0b98 0abb e316 d53d
000001e0: 08bf bdbc e179 b13a faea cd3c d713 aa3d
000001f0: 9c2c 7bbd 7454 2cbd b723 90bd 5a07 95bd
00000200: 3355 6f3d 3a74 8b3c 9efb bbbc 7f79 4cbd
00000210: d1e9 e7bc ce7e 473d 5f08 1cbd 4b8a 873d
00000220: 6185 393d a989 9dbd 62d9 a4bd f610 023d
00000230: 8724 433d d446 68bd 9a0d 1bbe 5326 72bc
00000240: df82 25be d375 c7bd 37f8 bdbc 6afd e5bb
00000250: 1c0b 603d ad1f c23d f242 cb3a 6b2b 41bd
00000260: a980 3cbd 0cf9 4ebd 2cbb be3d 3cfb ae3d
00000270: ed06 96bc 32b2 24be 5597 503d 684e 5b3b
00000280: 68d3 cbbc 386a b1bd 2491 1bbd dda4 9abd
00000290: 3f16 b9bd 2b26 20bd 8773 333d 6228 93bd
000002a0: c302 5dbd d219 16bd db62 093d 25f3 16bd
000002b0: 6a37 99bd a2af 66bd e9cf 4ebc 3efa c8bc
000002c0: 4d89 d23c 0135 b33d 1ebe 95bb 6c6c bebc
000002d0: 7567 1abe 0dc0 e9bd 95f2 51bd 0814 313e
000002e0: 61c8 dc3d 5699 9c3d c030 703c 1d2f afbd
000002f0: 11e1 9a3d 3e7b c63d 320a a9bd 8936 ae3d
00000300: a20c 12bd 712b 9a3d 82a8 963d de5e 03be
00000310: 3196 9c3d 987c 9ebd ad3a 1ebd 680b 2cbe
00000320: 6f52 b4bd 81ec bcbd 02ba a5bd 7b94 9d3d
00000330: 0779 173e f1f3 303d 3603 193d bdbd 743c
00000340: 17f5 803d b74f a7bd 5814 9b3c c3fa 503c
00000350: 50e7 c33d c78f 8d3b 29a5 a83d 87f0 973c
00000360: 2dea 653d fff0 7a3d 0111 2c3d 8dec 01bc
00000370: bc26 053d 9567 eb3d 1586 663c 91d7 08bc
00000380: af8b b7bc b85c 013e 49af 04bd 134c 033e
00000390: a034 933d 3f17 1c3d 0d64 cc3c d518 b73d
000003a0: 319e ac3c 4f11 a43d dab2 3cbd 7c5c cbbc
000003b0: 7597 f4bd 463c 43bd 6b5f 1cbd 8c1a f1bc
000003c0: 31dd 343d a0f0 82bd 9f1b c63d a9b9 6c3c
000003d0: 50c4 413c 2bf6 a93d 8d4d 30bd e835 a9bd
000003e0: 545e c0bd 4455 88bc c3f2 40bd 6b94 a5bd
000003f0: 01b4 653c 9b07 013e 8311 013e dd1b 403d
0.027197601 0.07541481 -0.070760444 -0.04759604 0.04809014 -0.078887925 0.0717862 0.0134876575
0.06544318 0.007956072 -0.0020568178 -0.006101224 -0.044534218 -0.029681295 0.066720605 -0.05033243
0.057614233 0.052878078 0.0057811807 0.078309804 -0.13906826 -0.0064807497 -0.044091098 0.024765372
0.010558261 0.1128229 -0.027439672 0.058217645 0.02089911 -0.01934821 0.008411266 -0.05114194
0.0061703892 -0.01859521 0.055964366 0.021477716 0.14273083 0.036353305 0.09021615 0.015077051
-0.021159068 0.06816266 -0.06660724 0.036167666 -0.048820615 0.10277307 -0.060636193 -0.073564455
0.11910681 0.004029754 -0.008801326 0.05213338 -0.009188153 0.016843032 -0.07542568 0.013848307
-0.03514537 0.040652465 -0.012726939 0.050165802 -0.046269543 0.053420994 0.058712993 0.048778623
-0.057706892 0.0014429028 0.04360291 0.1224729 -0.051587075 0.029546915 0.043758422 0.023313936
-0.075897835 -0.032337237 -0.041213404 -0.06268148 0.08584424 -0.028318385 0.08466702 -0.047398236
-0.043016944 -0.02060617 -0.019988693 -0.044436164 0.2550901 0.0124744885 0.047524255 -0.0230268
0.07030159 -0.025735449 -0.07893621 -0.020816322 -0.065694325 -0.02934151 -0.062964186 -0.14920902
-0.025731059 -0.065829314 0.0785675 0.15300249 0.07849713 -0.035527248 0.050450325 0.05745762
0.076434314 -0.012349693 0.005841075 0.07846859 -0.09119658 0.016855368 -0.03410324 0.09362585
0.00048568065 0.022714887 -0.0497023 0.018725 0.0566468 -0.10587991 -0.0021147754 0.10404756
-0.02316238 0.0013540351 0.02513646 0.083045654 -0.06132184 -0.04207273 -0.07038062 -0.07276793
0.05843086 0.017023195 -0.022947129 -0.049920555 -0.028309735 0.048704915 -0.03809392 0.06618174
0.045293216 -0.07692272 -0.08049275 0.031754456 0.047642257 -0.056708172 -0.15141907 -0.014779645
-0.16163205 -0.0973927 -0.023189647 -0.0070187347 0.054698095 0.09478698 0.0015507622 -0.047160547
-0.046021137 -0.05053048 0.09313044 0.08544013 -0.01831385 -0.16083601 0.05092557 0.0033463482
-0.02488108 -0.08662838 -0.037980214 -0.075509764 -0.09037446 -0.0390989 0.043811347 -0.07185437
-0.053957712 -0.036645718 0.03354154 -0.036852974 -0.074812725 -0.05631984 -0.012622812 -0.024533387
0.025700236 0.08750344 -0.004569783 -0.023245059 -0.15078528 -0.11413584 -0.051256735 0.17292798
0.10780407 0.07646434 0.01466006 -0.08553908 0.07562459 0.09691475 -0.08253898 0.085064955
-0.03565658 0.07527817 0.07356359 -0.12829158 0.07645834 -0.07738608 -0.038630176 -0.16801226
-0.088047855 -0.09224797 -0.08092119 0.07694336 0.14792262 0.04320139 0.037356578 0.014937815
0.06296747 -0.08169501 0.0189306 0.012755099 0.09565604 0.004320118 0.08234627 0.01854731
0.05613153 0.061264988 0.042008404 -0.007929933 0.032507643 0.11494366 0.014070054 -0.008352176
-0.022405474 0.12633026 -0.032393727 0.12821989 0.07187772 0.038108107 0.024950052 0.08940283
0.021071525 0.08011114 -0.046069004 -0.024824373 -0.11942951 -0.047664903 -0.038176935 -0.029431604
0.044156257 -0.06393552 0.09673237 0.014448562 0.01182659 0.08298906 -0.04304271 -0.08262235
-0.09392992 -0.01664222 -0.047106516 -0.08084949 0.014019967 0.12600558 0.12604336 0.046901572

fc2.bias f4 [64]
00000000: 73c8 a13d 0704 403d 65f4 173d d5ec 15bd
00000010: 6b1a e2ba 3d2a db3d 450a 99bb 7160 1e3d
00000020: 5527 063d 5856 db3d dca8 3a3d c07f 53bd
00000030: 58d2 633d 1d9b 893d 9369 323d e15c 5abd
00000040: 4311 443b 55e2 203d c380 bb3c 5808 b13c
00000050: 49c1 583d 0833 5cbd d2ad c23c fa15 97bd
00000060: 13d3 203c e057 8abd bd97 ac3b ed01 d7bc
00000070: c622 293d 4f6a fabc e9cb 7b3d 414c a53d
00000080: c606 bc3d 1282 89bd 80a5 633d 8c83 ca3b
00000090: bba1 2a3d 3753 613b 7f84 c4bc 0333 223d
000000a0: 8f66 21bd bab4 62bd 3c17 023d b18b abbd
000000b0: 67c4 febc 07d6 f9bc 5179 b73d c658 833c
000000c0: 48ea f33c 73dc 52bd 71ba 04bd 8c97 febc
000000d0: 88be 493d 455d aebd 80e3 b63c 5f7a 963c
000000e0: ac22 f43c dcb7 97bc 2e79 e03c 5118 0c3d
000000f0: 1351 8abd 3ec5 8b3c 386f d63d 9eee 963c
0.07899561 0.04687884 0.037098307 -0.036602814 -0.0017250305 0.10701416 -0.0046704137 0.038666192
0.032752354 0.10709828 0.045571193 -0.051635504 0.05562052 0.06719039 0.043557715 -0.053311232
0.0029917515 0.039278347 0.022888547 0.021610424 0.052918706 -0.053759605 0.023764525 -0.073772386
0.009815949 -0.06755042 0.005267112 -0.026246035 0.04129293 -0.03056827 0.06147376 0.08071185
0.091809794 -0.06714262 0.055577755 0.0061802324 0.041658144 0.0034381875 -0.02398896 0.03959943
-0.039404448 -0.055348136 0.03176044 -0.083762534 -0.031099511 -0.030497564 0.08958686 0.016033541
0.0297748 -0.051479768 -0.032404367 -0.031078123 0.04925397 -0.085138835 0.022325277 0.018368898
0.02980169 -0.018520288 0.027401533 0.034202877 -0.06753745 0.017061826 0.10470432 0.018424328

fc3.weight f4 [10, 64]
00000000: bb8b a63d dda0 2fbd 85d5 713c bc13 943d
00000010: 95c7 9d3d 0ff5 473e fe83 74bc 1dc4 003d
00000020: 3f0c 00be d1ea f0bb 9338 db3d 2597 e83d
00000030: c608 693d 3a63 113e f08d c4bc e1e4 9fbd
00000040: 4a66 783d 08bc 9bbc a71f 0dbe d693 233e
00000050: 72b4 9dbd 5380 243e 99fd edbd 668e 41be
00000060: b4a8 54be 78f2 bfbd 544e d8bd ed59 e93d
00000070: 740a 99bd 68ba 68bc 982e 92bd 2a90 75be
00000080: cb9f 353d d142 8ebd 1b1f 5ebe 9d2c 9bbd
00000090: a64f 55bc 4e1b fabd dc91 43be 9451 16be
000000a0: 6212 d43d a8f4 7cbd a83e b9bc 60c6 473b
000000b0: 070b b8bd e24d c93c 2028 b5bd 9827 29be
000000c0: f51e 453c 8dab 3d3e 3009 e23c 2002 103e
000000d0: a1b7 26bc 9069 31bd 9f4f 1abe 39bc c13d
000000e0: fc62 15be 0260 8e3c 1c1d 043e 6d56 9e3c
000000f0: e7cc b53d 7128 cfbd 3528 acbd 1fab 80bc
00000100: 45a3 06be d04e 34be f43b c13d 489a d3bb
00000110: f2e2 e3bd 0be3 13be e120 273b 5aaf 34be
00000120: 257c edbd 599f c5bd a174 c53d d1af 69be
00000130: 9a14 90bd 2e6e 67be d836 51bc 3bab 4ebd
00000140: 6120 e73b 643c 253e 91dc 233e a163 d43d
00000150: 3fee 423e 1c4b 88bc 6bce 34bd 11c9 4ebe
00000160: f285 183e 8dbc d43d 8fab 4d3d 7250 d8bd
00000170: 4a31 9fbd f4d1 553d bef2 3ebe 227b 91bd
00000180: f71e 023e f43d 583d a411 b33d 062b 563d
00000190: 48e3 d83d 5dad f1bd 0d9f fe3d 8e0f a33d
000001a0: d552 563e 1f64 15bc 7be2 f4bd e62b c33c
000001b0: 1ab8 aabd a088 9e3d d645 21be 077e a53c
000001c0: 39a5 aebc b259 02be 8cf4 3dbe 64e9 07be
000001d0: bf5c 123c 7c8b 65bc 55ee 113e a158 0cbe
000001e0: 23d5 ea3d 6b78 c6bd 4c95 0fbe fa12 d2bb
000001f0: e142 bcbd 5d4a d7bc 750f 7bbd 5dad c33d
00000200: 2665 76bc f4e5 303e f1d3 cbbc 521c bdbd
00000210: 494f 60be 18c8 f73d 011d 9cbe 0482 06bd
00000220: 8848 2e3e 21db 97be ddac b0bd ecde cabd
00000230: cc50 82bd 9111 ec3d e2e4 ad3d 698a 9fbd
00000240: 1e94 4d3a 6fe2 043e 4ccc efbd 2c41 d2bd
00000250: 12b5 983d 7af3 92bd 7cfb cb3d 8d20 d33d
00000260: 4b40 fa3d f65b ee3d 69fb 853d 31d4 bfbd
00000270: 8105 523d 6436 ffbd 308b 16bc 97c4 f9bd
00000280: 7ff8 0b3e 0649 153c c5c6 0fbe 069f 363d
00000290: 6a07 38be 858c df3c 4dec 9abd b166 52bc
000002a0: 5477 823d b40f 4abd eaf2 6a3c 4e49 8d3d
000002b0: fc0e 483e fb45 be3d 7a11 1abe 8c28 0fbe
000002c0: 40d3 4dbd 2354 423d 78fd b33d b2e7 813d
000002d0: dfee 6cbd 65e6 1d3e e017 d93d 6c37 f23d
000002e0: 1f9f a4bd 8ed3 9abd 23ee 0e3d f379 a53b
000002f0: fcce 543d fa8d debd 03e8 d1bd b1a7 883d
00000300: f578 a5ba 9ed7 32bd 600d d5bd dbfd d0bd
00000310: b3bc d8bd 4ad6 263d 0656 233d 664e 663d
00000320: fd40 163e 0a91 a33d bd8a 02be 9704 bebc
00000330: b11d 8e3d ff27 20be 3f94 b43c 2326 6cbd
00000340: 572e 03bc 9f5b 20bd 160b 2cbd f4af 083e
00000350: 8264 8e3c af8a 89bd 534b 9f3d 6e6a 473e
00000360: 7745 f43d 00ed 873d 770f 933d 9eda 3c3d
00000370: d5a3 193e 40ec 133e ceff 003e f52c bdbd
00000380: 4e79 1c3d d035 963c 01c3 023d 0da7 5c3d
00000390: 2f65 47be 7601 fb3b 22f2 703d 8e46 053e
000003a0: 829f 10be 76d1 c93d ba80 1f3d c56f e5bc
000003b0: 7ffe 2cbe fae8 bbbd 03b8 e03d bb4d 25be
000003c0: 771b d5bd 06a6 043e 6dce fdbd f623 2bbe
000003d0: 729d 003d 8158 ec3d cc74 d8bd 8e8e d1bd
000003e0: 3b02 c53d 594e 1d3d 1855 883b c9b7 07bd
000003f0: d5cb 04bc ba08 e73c b457 fabd 0f89 37ba
0.0813212 -0.04287802 0.01476038 0.072303265 0.07704083 0.19527076 -0.0149240475 0.03143703
-0.12504672 -0.007352211 0.1070415 0.113569535 0.056893133 0.14198008 -0.023993462 -0.07807327
0.060644425 -0.019010559 -0.13781606 0.15974364 -0.07700433 0.16064577 -0.116206355 -0.18901977
-0.2076748 -0.09372419 -0.10561815 0.11394105 -0.07472697 -0.014204599 -0.07137793 -0.23980775
0.044341844 -0.06946338 -0.21691553 -0.07576869 -0.013019478 -0.12212239 -0.1909861 -0.14679557
0.10355069 -0.06175676 -0.022612885 0.003048323 -0.08986478 0.02457327 -0.08845544 -0.1651901
0.0120313065 0.18522473 0.027592272 0.1406331 -0.0101756165 -0.043313563 -0.15069436 0.09459729
-0.14588541 0.017379764 0.1290173 0.01932832 0.08876973 -0.101151355 -0.084061064 -0.015706597
-0.1314822 -0.1760819 0.09435263 -0.0064576007 -0.11127271 -0.14442079 0.0025501775 -0.17645016
-0.11595944 -0.09649534 0.09641386 -0.22820975 -0.070351794 -0.22600624 -0.012769423 -0.050456267
0.0070534204 0.16136318 0.16002108 0.10370565 0.19036196 -0.016637377 -0.044142168 -0.20193888
0.14894846 0.10387526 0.05021244 -0.10562219 -0.07773073 0.05220218 -0.18647286 -0.07103564
0.12707125 0.052793458 0.08743599 0.052287124 0.105902255 -0.118006445 0.1243268 0.07961951
0.20930035 -0.009118109 -0.1195726 0.023824643 -0.08335896 0.07740903 -0.15749297 0.020201696
-0.021319019 -0.12729529 -0.18550318 -0.13272625 0.008933245 -0.014010306 0.14251073 -0.13705684
0.11466434 -0.09690937 -0.14021796 -0.0064109536 -0.09192444 -0.026280576 -0.061294038 0.09554551
-0.015038764 0.1727522 -0.024881335 -0.09233917 -0.21905245 0.12098712 -0.30490878 -0.032838836
0.17019856 -0.2965937 -0.08626721 -0.099058 -0.06363067 0.11526788 0.084909216 -0.077900715
0.00078422006 0.12977003 -0.117088884 -0.10266337 0.074564114 -0.07175346 0.09960076 0.10308943
0.12219294 0.11638634 0.06542093 -0.09366644 0.05127478 -0.12461546 -0.009188458 -0.121957
0.13669012 0.009111648 -0.14040668 0.04458525 -0.17971578 0.027288685 -0.07564602 -0.012841866
0.06370416 -0.049331382 0.014340142 0.068987474 0.19536966 0.092906915 -0.1504573 -0.13980311
-0.05025029 0.04744352 0.0878858 0.063430205 -0.057844993 0.1541992 0.10600257 0.11826977
-0.080381624 -0.07559882 0.034895074 0.005049938 0.05195521 -0.10866924 -0.10249331 0.066726096
-0.0012624549 -0.04366266 -0.10402942 -0.10204669 -0.105828665 0.040731706 0.03987696 0.05622711
0.14673229 0.079866484 -0.12748237 -0.023195548 0.06939257 -0.15640257 0.022043345 -0.057653558
-0.008006654 -0.039149877 -0.04200276 0.13348371 0.01738191 -0.06715905 0.07778039 0.19474193
0.11927312 0.06637001 0.07180684 0.046106927 0.15003903 0.14445591 0.12597582 -0.092370905
0.038201623 0.018336207 0.03192425 0.05387025 -0.19472192 0.0076600863 0.058824666 0.13015196
-0.14123347 0.09854405 0.038941123 -0.028007397 -0.16893958 -0.09175296 0.109725975 -0.16142933
-0.10405629 0.12953958 -0.12392888 -0.16712937 0.03140015 0.11540318 -0.10569152 -0.10232268
0.09619566 0.038404796 0.0041605346 -0.033134256 -0.008105238 0.028202403 -0.12223759 -0.00070013193

fc3.bias f4 [10]
00000000: 4299 583b b78c 273c b643 56bd 6e3b 50bd
00000010: bb60 bcbd 11d8 973d 949a 60bd 5861 973d
00000020: 0683 21bd d8a2 8bbd
0.0033050333 0.01022642 -0.052310668 -0.050837927 -0.091981374 0.07414258 -0.054834917 0.07391614
-0.039431594 -0.06818169
